model/model.onnx (onnx, 7079 bytes, 6 tensors)

enhance.in_conv.0.weight f4 [3, 3, 3, 3]
0.042308897 -0.0068719042 0.013581906 -0.019216657 0.046639793 0.02819923 0.015612047 -0.018185494
0.01685768 0.03387684 0.011113954 0.014430466 -0.012025856 0.049921338 0.018905865 -0.008584025
0.017036587 0.047030598 -0.02389813 -0.0022315886 0.0248384 0.025038904 0.027601209 0.034795407
0.04840439 0.010410399 -0.0042375587 0.0057001947 0.0048912643 0.034379337 -0.0020857414 0.036676563
-0.054987915 -0.019175857 -0.03473007 -0.0028229363 0.0075567346 -0.005876094 0.019892665 0.0053000706
0.07720368 -0.061446823 -0.009859448 -0.016361786 -0.015003525 -0.028389983 -0.059728928 -0.03396194
0.020735098 0.09695658 0.012229613 0.018040154 0.05329236 0.021691237 0.013253309 -0.013882821
0.03300084 -0.016603125 -0.0625593 -0.037748948 0.046022564 -0.019826693 0.009633105 0.022263072
0.008442488 0.015347826 -0.027201744 -0.10536601 -0.015980033 0.03303704 0.010683575 0.005397213
0.02942759 0.0017060344 -0.029630592 -0.00423108 -0.05765331 0.036335118 -0.03034308 -0.0054037743
0.039901946
00000000: 184c 2d3d b62d e1bb a586 5e3c 406c 9dbc
00000010: 5e09 3f3d 1202 e73c acc9 7f3c bff9 94bc
00000020: 1e19 8a3c 71c2 0a3d 4d17 363c c36d 6c3c
00000030: 1908 45bc 517a 4c3d 79e0 9a3c 03a4 0cbc
00000040: 5090 8b3c 28a3 403d 03c6 c3bc d83f 12bb
00000050: e679 cb3c 631e cd3c ee1b e23c a185 0e3d
00000060: af43 463d 6190 2a3c 38db 8abb b3c8 ba3b
00000070: e646 a03b 59d1 0c3d efb0 08bb 2a3a 163d
00000080: 023b 61bd b016 9dbc 1e41 0ebd 0301 39bb
00000090: 7c9e f73b 408c c0bb f1f5 a23c 37ac ad3b
000000a0: f71c 9e3d aaaf 7bbd 8689 21bc 2709 86bc
000000b0: 58d1 75bc 1c92 e8bc 52a6 74bd ad1b 0bbd
000000c0: a7dc a93c 2c91 c63d b75e 483c f2c8 933c
000000d0: 1749 5a3d d2b1 b13c 6824 593c c674 63bc
000000e0: e42b 073d 4703 88bc 171f 80bd a49e 1abd
000000f0: 2882 3c3d 976b a2bc 2cd4 1d3c 0c61 b63c
00000100: 5c52 0a3c 7375 7b3c 31d6 debc 22ca d7bd
00000110: 8fe8 82bc d951 073d 290a 2f3c 1bdb b03b
00000120: 2112 f13c 049d df3a dbbb f2bc dfa4 8abb
00000130: e125 6cbd 22d4 143d 0d92 f8bc 2512 b1bb
00000140: 3970 233d

enhance.in_conv.0.bias f4 [3]
-0.034094382 0.030155666 0.11709199
00000000: 8da6 0bbd 0409 f73c edcd ef3d

enhance.out_conv.0.weight f4 [3, 3, 3, 3]
-0.13092682 0.073125064 0.041158162 -0.15827319 -0.13564596 0.029905848 -0.10310169 -0.029640486
-0.055569757 0.026900604 -0.0015991275 -0.005203484 0.08359666 0.13767383 0.024409954 0.039466966
-0.044352725 -0.028320715 0.028324563 -0.25510335 -0.11988108 -0.21699718 -0.016979247 -0.10227135
-0.121019535 0.039326187 -0.034864996 -0.09250013 0.047148626 0.01926056 -0.14011118 -0.14005207
0.018892422 -0.08850731 -0.010532208 -0.039835673 0.026591733 -0.013948925 -0.035886243 0.060130045
0.13656914 0.006623807 0.06727363 -0.044092853 -0.017547473 -0.008644639 -0.20670152 -0.124238685
-0.14771026 0.013397759 -0.10219091 -0.1602691 0.052101362 -0.042368297 0.0012851743 -0.036166694
-0.017659849 -0.12746446 -0.18669315 -0.030624183 -0.06897373 0.067206174 0.026164116 0.022692632
-0.08399272 -0.06928872 0.04410954 0.0682598 -0.05175079 0.10716579 0.024911322 0.034746077
0.0029030733 -0.12817335 -0.12454678 -0.10137076 0.091812156 -0.04289951 -0.22384727 -0.040267404
-0.09753399
00000000: ae11 06be 98c2 953d 7695 283d 5e12 22be
00000010: c6e6 0abe 1cfd f43c fb26 d3bd 9bd0 f2bc
00000020: 1d9d 63bd a85e dc3c d199 d1ba fd81 aabb
00000030: ba34 ab3d 5efa 0c3e 62f7 c73c 1da8 213d
00000040: 34ab 35bd d800 e8bc ea08 e83c e89c 82be
00000050: 3684 f5bd 8234 5ebe 1018 8bbc a473 d1bd
00000060: 17d9 f7bd 7f14 213d 99ce 0ebd b570 bdbd
00000070: eb1e 413d 52c8 9d3c 4e79 0fbe cf69 0fbe
00000080: 48c4 9a3c 5243 b5bd 488f 2cbc bb2a 23bd
00000090: e8d6 d93c 088a 64bc 74fd 12bd ec4a 763d
000000a0: c8d8 0b3e 850c d93b c2c6 893d b59a 34bd
000000b0: b8bf 8fbc 3ea2 0dbc 90a9 53be da70 febd
000000c0: 5c41 17be 4682 5b3c 7849 d1bd 951d 24be
000000d0: 3d68 553d 618a 2dbd 4b73 a83a 8723 14bd
000000e0: 63ab 90bc 0b86 02be 7d2c 3fbe 91df fabc
000000f0: 1942 8dbd 64a3 893d 2156 d63c e6e5 b93c
00000100: 6004 acbd 3fe7 8dbd 34ac 343d cbcb 8b3d
00000110: a3f8 53bd bd79 db3d d412 cc3c e751 0e3d
00000120: 7d41 3e3b e03f 03be 6212 ffbd 799b cfbd
00000130: 0308 bc3d 66b7 2fbd 3838 65be 6fef 24bd
00000140: e7bf c7bd

enhance.out_conv.0.bias f4 [3]
-0.24506055 -0.23538116 -0.27156103
00000000: 27f1 7abe c207 71be 0c0a 8bbe

onnx::Conv_31 f4 [3, 3, 3, 3]
-14.197643 -1.5960052 -5.1147103 4.3754263 20.01878 3.786789 -10.67805 -3.1749654
-6.216578 4.6273513 -9.92988 7.7250443 2.3972764 9.174825 10.19083 6.0584383
-10.50424 -1.6282976 -1.4048854 -7.6622076 -13.18764 0.08530887 -20.491116 -18.599583
1.9786825 -3.761844 -3.113734 -1.5187358 5.0632596 -3.0596972 2.553951 -10.836291
10.006794 10.511385 2.8337162 -2.4918337 5.784388 12.329314 -9.527325 46.84851
10.963718 -1.5537431 13.307154 26.900986 0.644745 -0.8885703 -10.783726 15.680327
18.724922 28.859303 10.599121 4.432646 1.6035199 -1.4093617 -3.8357818 -0.6098885
-7.11188 4.8397293 5.8969603 3.831081 0.6773796 0.1657225 -7.8215632 8.0494995
-10.800215 7.6853633 5.9326034 -15.161267 2.2512016 6.68541 18.266867 -0.41418955
0.5585501 5.328019 -5.6754527 0.16961211 -4.803446 3.313827 1.1902578 1.4322132
-2.9892704
00000000: 8c29 63c1 e649 ccbf b5ab a3c0 7e03 8c40
00000010: 7626 a041 c05a 7240 4bd9 2ac1 a232 4bc0
00000020: 35ee c6c0 4313 9440 cae0 1ec1 9033 f740
00000030: fa6c 1940 15cc 1241 a40d 2341 bade c140
00000040: 5e11 28c1 0e6c d0bf 49d3 b3bf ce30 f5c0
00000050: 9300 53c1 6bb6 ae3d ceed a3c1 f2cb 94c1
00000060: 7845 fd3f 0dc2 70c0 6b47 47c0 ef65 c2bf
00000070: 3906 a240 14d2 43c0 ef73 2340 7361 2dc1
00000080: d41b 2041 a22e 2841 9b5b 3540 347a 1fc0
00000090: b519 b940 df44 4541 ec6f 18c1 e064 3b42
000000a0: 646b 2f41 0ee1 c6bf 1aea 5441 3835 d741
000000b0: 020e 253f 5879 63bf 248a 2cc1 9fe2 7a41
000000c0: a4cc 9541 dadf e641 0096 2941 3cd8 8d40
000000d0: 2440 cd3f f765 b4bf 737d 75c0 a721 1cbf
000000e0: 8594 e3c0 10df 9a40 e6b3 bc40 6e30 7540
000000f0: c068 2d3f 29b3 293e 3f4a fac0 c0ca 0041
00000100: aecd 2cc1 7fee f540 e3d7 bd40 8d94 72c1
00000110: b013 1040 e1ee d540 8b22 9241 a710 d4be
00000120: 24fd 0e3f 227f aa40 4f9d b5c0 ccae 2d3e
00000130: d4b5 99c0 be15 5440 5e5a 983f c352 b73f
00000140: 3550 3fc0

onnx::Conv_32 f4 [3]
7.616322 -8.1752405 1.4046478
00000000: e9b8 f340 c9cd 02c1 80cb b33f
